trained_net/trained_net_0516.pt (torch, 134667 bytes, 8 tensors)

weight f4 [3, 1, 7, 7]
00000000: b43d 043e a853 26bd ace2 99bd ca92 e1bc
00000010: 80ff 843d c031 063d 06d2 95bd 8a41 cd3d
00000020: f87b 0cbd db88 dbbd a831 1b3b 3e0f e43d
00000030: 55e2 88bd 965b 81bb c5cb 0e3d 5b85 e13d
00000040: 0520 8a3d f04f 783b 22c5 a5bd beaa 3dbd
00000050: fb4b 043c 295f 1cbc e9a6 033e 37b7 d0bd
00000060: d4b9 86bd 74a6 b8bc 80b0 d23d a134 8abd
00000070: 19b9 b13c e497 923b e963 50bc 7089 803c
00000080: abc9 2dbd 0f60 debb 0293 553d 1d9d e6bd
00000090: 232f 1ebd ef38 abbd 26af f03d ad71 6a3c
000000a0: ac56 b1bc fa03 b23d 7c63 923d e5ae 77bc
000000b0: 4ed6 e8bb 8ca5 92bd 0174 e43c 1783 7bbd
000000c0: 0d8b 73bc 2aba 893d c0c7 bbbd f918 6dbd
000000d0: 64ec 8d3c de64 e03c 12df 6cbd 0f0f fb3d
000000e0: 0e7c d5bb 6578 df3d 2fd2 f13d cf29 dcbd
000000f0: af9b 91bd eac3 34bd e7b2 d0bd 76f8 843d
00000100: 9581 9a3d 5ddb e63c 815d d33d cfaa f13d
00000110: 138c 14bd 6be1 6c3d a66d c63d c3d5 eebd
00000120: 4506 b4bd dcb2 0e3e 0f0f 6abc be32 04bd
00000130: 757b b93b 2475 0dbd a485 aabd 4170 cabd
00000140: 8690 babd 22e4 ecbd 02ae 043e a1c2 ecbd
00000150: f5c6 983d 4427 0c3e d75a 96bd ac88 06be
00000160: 9338 bebd 6c93 c13c fe8d 5cbd b1d5 0e3e
00000170: 36e2 04be 39ed 6cbc 83db 93bd 9075 debd
00000180: 616b 3bbc d7a6 a4bd 9c5f 07bd cf29 e7bd
00000190: fcaa dabd ab83 72bd 53bd 073d d441 03bc
000001a0: 8792 f2bd 8d5a 25bd 0c89 fabd 80c0 d8bd
000001b0: 1419 d5bb ec0c 2ebd b15d 68bd 29a8 8fbd
000001c0: 18bf 78bd a4c0 043e 38db 093d da6e fd3d
000001d0: 39eb bebd 806c c13b cc80 c83d 0994 99bd
000001e0: 1652 26bd 3e14 b03d fecb edbd 1326 003d
000001f0: 454e 0dbe f73e 423d ed84 8d3c b262 c13d
00000200: a185 0fbe 5e58 05be 8fe9 80bd 3d19 c0bc
00000210: 39a3 f0bd 0291 abbc 4094 5e3d 47be fdba
00000220: 29db adbd 7bd0 b4bd 70af 423d 4700 8e3d
00000230: acc1 0c3e d9a0 d63d 9eb0 9b3d a343 a2bd
00000240: cead 12be a6e0 6abd b279 d63d
0.12914163 -0.040607125 -0.07513937 -0.027535815 0.06494045 0.03276229 -0.073154494 0.10022266
-0.034297913 -0.107194625 0.002368072 0.1113572 -0.066837944 -0.0039476855 0.0348623 0.11011764
0.067443885 0.0037889443 -0.08094241 -0.04630541 0.008074756 -0.009544172 0.1285664 -0.101911955
-0.06578413 -0.022540309 0.10287571 -0.067483194 0.021694707 0.004473673 -0.012719133 0.015690535
-0.042428654 -0.0067863534 0.05214215 -0.11260436 -0.03861917 -0.083604686 0.11752157 0.014309329
-0.021647774 0.08692165 0.071478814 -0.015117382 -0.0071056252 -0.07160482 0.027887346 -0.061404314
-0.014864695 0.06724961 -0.09168959 -0.057885144 0.017324634 0.027391847 -0.057829924 0.122587316
-0.0065150326 0.10911635 0.118076675 -0.10750162 -0.071097724 -0.04413215 -0.10190373 0.06492703
0.07544247 0.028180772 0.10320569 0.11800157 -0.036266398 0.057832163 0.096888825 -0.116618656
-0.08790258 0.13935417 -0.014285817 -0.032274954 0.005660469 -0.034535542 -0.08326271 -0.09884692
-0.09109597 -0.115669504 0.12957004 -0.1156056 0.07459823 0.13686854 -0.07341545 -0.13138074
-0.092881344 0.023629867 -0.05384635 0.13948704 -0.12976918 -0.014460855 -0.07219603 -0.10862267
-0.011439175 -0.08039635 -0.033050165 -0.11287271 -0.10677144 -0.0592076 0.033139538 -0.0080113
-0.11844354 -0.04036956 -0.12233171 -0.105835915 -0.0065032337 -0.042492792 -0.056729976 -0.07014496
-0.060729116 0.12964112 0.03365633 0.12374659 -0.09322209 0.005902827 0.09790191 -0.074989386
-0.040605627 0.08597611 -0.11611174 0.03128631 -0.13799389 0.04742333 0.017275298 0.09442653
-0.14015819 -0.1302199 -0.06294548 -0.023449535 -0.11749882 -0.020943169 0.0543406 -0.0019359075
-0.08489067 -0.08828827 0.04753059 0.06933647 0.13745755 0.10479898 0.076020464 -0.07923057
-0.14324114 -0.057343148 0.1047243

bias f4 [3]
00000000: aa27 fdbd 3042 973d 488d 9a3d
-0.12361081 0.07385671 0.075464785

weight f4 [3]
00000000: e001 823f e191 823f 4219 823f
1.0156822 1.0200769 1.0163958

bias f4 [3]
00000000: 632c 6338 cde1 9e3c 2e81 433c
5.4162356e-05 0.01939478 0.011932654

running_mean f4 [3]
00000000: 8ba2 67bf fa3f 9cc2 dd43 2cc3
-0.90482396 -78.124954 -172.26509

running_var f4 [3]
00000000: 8182 e442 3e7e ec44 baef e745
114.25489 1891.9451 7421.966

weight f4 [3, 10800]
00000000: d632 93bb c1b0 c4bb b895 0ebb 6bb9 143b
00000010: 9357 a23b 565e 633b 5cef 2bbb e71b 42bb
00000020: f6b9 ca3b d12f 0e3b ec70 f83a 4488 57ba
00000030: e7ad bebb 3bb5 4cbc 860e 453b 1874 db3b
00000040: 59d3 dfbb c2b4 bfbb ef54 f7bb 5b1e 32bc
00000050: a8b4 77bb 53f9 00bc 7851 b5ba 0179 94bb
00000060: ad83 a33b c291 893a a680 abba efe1 c33a
00000070: 5ff8 1bbc 805b 68bb f168 17bc cf52 17bb
00000080: 34f8 f63b 4e33 983b 6246 9d3b 54b9 a83b
00000090: 2de4 47bb d4ef 033c 5bbb 49bc 3fc8 febb
000000a0: c7a6 2f3b b203 4b3b 996b 1fbc 648c 963b
000000b0: 625f babb 6fdd 3cba dbc3 25bc a4d8 06bc
000000c0: 0d9d 96bb d70d 3f3b 63ce 81bb 8f0f 07bc
000000d0: 3c6c 0b3b 75f1 703b 2b4d 4e3b 62f1 6c3b
000000e0: 03d9 843b 45e8 27bc adfb 713a 32de c0b8
000000f0: 6c8a 293b 4a87 b73b 3291 95bb 6a8e fb3a
00000100: 0d13 d2bb 9c79 2fbc 058e 62bb be7a 4fbb
00000110: 09ca 14bb e0f8 8cbb 5233 e2b9 ad8d 98bb
00000120: c33a 3e3b 842f a7bb c3cb 1bbc a5c1 19bb
00000130: 8e7f 94ba 8441 5abb 4aad c4bb 3920 e1bb
00000140: a73c 053c 1c5a 933b 52e6 41ba 45fe 9f3b
00000150: aa4f 07bb 8279 edbb efb9 8d3b 5e66 72bb
00000160: f406 60bb eacd c8bb cb12 fb3b 34bb 0c3c
00000170: 64a5 69bb 9ff1 f2bb 7629 9bba db47 65bb
00000180: 8b0a babb 257d 4bbb d24d a3bb 19ae be3b
00000190: c1f5 3abb eea0 9b3b 0d9f 37bb 3ba2 b7bb
000001a0: 69b6 2bbc dd2a 843b 8c61 0cbc 1d11 25bc
000001b0: c792 a33b 3c9f 16bc ee87 edb9 b199 9ebb
000001c0: 0f68 72ba e2de 07bc 5415 bdbb 9510 f5ba
000001d0: d5e7 133a 6653 703b 3570 0bba 08bf 1dbc
000001e0: 3c6d f73b 888d 43bb 2865 5d3b b2e9 02bc
000001f0: 13a8 09bc 034d 16bc d44c deba 363c feba
00000200: d5a3 02bc 8b0a fe3b 726b dfbb ad5c 523b
00000210: 9131 ffbb 6cb0 79ba 37f2 83b9 bff0 0abc
00000220: 0670 793a 5f3e d63b ec8e 5abb a57a ec3b
00000230: b29f a4bb 4178 d33a 0c6a babb 2e73 e4bb
00000240: 33b2 6d3b 6b60 073c 85a3 e2bb c44e 77bb
00000250: 6445 caba 5eed 4ebb a661 f1bb e06b a4bb
00000260: 3eb1 903b 7209 9ebb f69c c13b d62d 373b
00000270: 5198 04ba 1e54 a53b c6bf d2bb 3757 483b
00000280: 00e4 82bb 6171 e13b b88c 97b9 5d39 0fbc
00000290: 4a6d 953b 6cab 69bb 646b ebbb f2ff ba3b
000002a0: 683f d1bb de47 48ba e07b 1bbc 5419 3f3a
000002b0: 2fed a0bb 8038 b53b 3c14 663b e1f0 223b
000002c0: a2dc 00bb 45f3 81bb 5ed2 81bb 6f1d 01bc
000002d0: a74b a7ba fe31 c3bb 10a4 96ba 7f72 afba
000002e0: ee19 e23b 274c d23b 0a45 01bc 94df e4bb
000002f0: 8307 103a 7cfc 98bb 6fc1 d93b a271 8c3b
00000300: 84ea af3b ac49 553b 503f 88bb 5249 1abc
00000310: f55c acba 12c6 623b bebd 88bb ce81 ea3b
00000320: f939 22bc 1647 5f3b 1ad9 a4bb 0924 aabb
00000330: a9d5 b7ba 6a6d 6839 adce 32bb f1a3 b9bb
00000340: b593 06bc 7aa2 baba af8c ba39 4e28 183b
00000350: 587c 0fbb ee8a c6bb a141 423b bc19 b83a
00000360: 3569 743b 296a c2ba cd63 84bb 3887 103c
00000370: 1852 a7bb f766 533b c8f2 8e3b 0bc5 9539
00000380: 043e 19bc c92b f13a 1024 f53b 7e66 24bc
00000390: ca93 30bb cf49 eebb 08e8 ac39 32bc 90bb
000003a0: 4dfe 43bc d0e4 26bc beab 7dbb 2611 29bb
000003b0: ad8f 6cba 3363 8d3b 4646 fe3b db1f 0cbc
000003c0: 9e6d b839 3d9c 463b 5ffe 92bb 2a53 65bb
000003d0: 3d09 cf3b d034 bc3b 1226 b03b 3271 083c
000003e0: c84e 11bb c123 ebbb 48ee d4bb d0bd 8bbb
000003f0: d007 3abc 45cd c13b e426 c1bb f5be d737
-0.004492144 -0.006002516 -0.002175672 0.0022693526 0.0049542873 0.003469368 -0.0026235199 -0.0029618682
0.006186719 0.0021695981 0.0018954552 -0.0008221904 -0.0058190706 -0.012494381 0.003006847 0.006697189
-0.0068306145 -0.0058504054 -0.0075479667 -0.010871495 -0.0037796889 -0.0078719435 -0.0013833484 -0.0045310264
0.004990062 0.001049571 -0.0013084605 0.0014944653 -0.0095196655 -0.003545493 -0.009241329 -0.002309013
0.0075369123 0.004644788 0.00479965 0.005149046 -0.0030500994 0.008052785 -0.012312735 -0.007775336
0.0026802288 0.0030977544 -0.009730243 0.0045943726 -0.00568764 -0.0007204627 -0.010117496 -0.008230362
-0.0045963586 0.0029152536 -0.003961371 -0.008243456 0.002127423 0.0036765013 0.00314791 0.0036154618
0.00405419 -0.010248248 0.0009230923 -9.1966605e-05 0.002586986 0.0056008445 -0.004564428 0.0019192223
-0.0064109624 -0.010710146 -0.0034569514 -0.0031658853 -0.002270343 -0.004302129 -0.00043144316 -0.004655561
0.0029026724 -0.0051021 -0.00950903 -0.0023461368 -0.0011329518 -0.003330321 -0.006002103 -0.0068702963
0.008132136 0.004496826 -0.0007396686 0.004882606 -0.0020646849 -0.007247151 0.0043251435 -0.0036987285
-0.0034183832 -0.0061280625 0.0076621524 0.008589555 -0.003565156 -0.0074140574 -0.0011837918 -0.0034985456
-0.0056775264 -0.0031049934 -0.004983642 0.005819094 -0.0028527828 0.004749409 -0.0028018386 -0.005604056
-0.010480502 0.00403343 -0.008568179 -0.010074881 0.0049918625 -0.009193238 -0.00045305438 -0.004840099
-0.00092470733 -0.0082928855 -0.005770365 -0.0018696958 0.00056421506 0.0036670803 -0.00053191493 -0.009628065
0.0075508635 -0.0029838998 0.0033782218 -0.007990288 -0.008401888 -0.009173634 -0.0016960152 -0.0019396606
-0.007973631 0.0077527217 -0.0068182284 0.0032098696 -0.007787891 -0.0009524885 -0.0002516673 -0.00848025
0.0009515289 0.006538197 -0.0033349348 0.007216769 -0.00502392 0.0016133861 -0.0056889113 -0.0069717383
0.0036269545 0.008262734 -0.0069164657 -0.0037736157 -0.0015432057 -0.0031574587 -0.007366377 -0.0050177425
0.00441566 -0.0048229033 0.005908604 0.0027950904 -0.00050580973 0.005045428 -0.0064315526 0.0030569562
-0.003994465 0.006879971 -0.00028905808 -0.008741704 0.0045601474 -0.0035655154 -0.007184433 0.0057067806
-0.0063857324 -0.00076401036 -0.009489983 0.0007289846 -0.004911087 0.005530417 0.0035107275 0.0024862813
-0.0019662757 -0.0039657676 -0.0039618453 -0.007880553 -0.0012763635 -0.0059568873 -0.0011492986 -0.0013385563
0.0069000637 0.0064177695 -0.007889995 -0.0069846604 0.00054942834 -0.0046687704 0.0066453735 0.004286007
0.0053685326 0.0032545133 -0.004157938 -0.009416895 -0.0013150262 0.0034602922 -0.0041730097 0.007156587
-0.009901517 0.003406947 -0.0050307633 -0.005192284 -0.0014025468 0.00022166004 -0.0027283833 -0.0056652953
-0.008213927 -0.0014239096 0.00035581502 0.0023217383 -0.0021894183 -0.006059042 0.0029641169 0.0014045755
0.0037294154 -0.0014832664 -0.0040402175 0.008821301 -0.005106222 0.0032257417 0.004362438 0.00028566303
-0.009353165 0.001839989 0.0074811056 -0.010034202 -0.0026943558 -0.0072719823 0.00032979273 -0.004416966
-0.0119624855 -0.010186389 -0.0038707103 -0.0025797575 -0.0009024095 0.004314804 0.007759842 -0.008552517
0.00035176886 0.0030305528 -0.00448589 -0.0034992197 0.00631824 0.0057436004 0.005375632 0.008327769
-0.0022172201 -0.007175893 -0.006498132 -0.004264571 -0.011354402 0.0059143626 -0.0058945287 2.5718919e-05

bias f4 [3]
00000000: 7741 09bc 0d41 833b 2234 cc3b
-0.008377424 0.0040055574 0.0062318007
