trained_net/trained_net_0412.pt (torch, 177867 bytes, 8 tensors)

weight f4 [3, 1, 7, 7]
00000000: 92de d53d 6f71 fc3c dc16 523d d222 e0bd
00000010: c1b8 2cbd d094 293d 8ec4 b73c ddae ddbd
00000020: 34a6 0e3e 9d0a 0d3e 6767 babd acc9 febd
00000030: 1b55 c3bd 38df 643d d1bf f3bd e53f 523d
00000040: b9c2 be3c 670a fb3d 1bfd f2bd 437a a93c
00000050: 91e1 d03d de16 a93d 826e f03c 65d9 923d
00000060: 3a6c 5bbd d791 edbd 3b34 0b3e a06c ef3d
00000070: d728 b43d b7b8 8cbc 7a4e 08be b4a1 b13d
00000080: cbbc c2bd 896a fbbd a1cc bebd 7afd 873d
00000090: b78b 753d 5467 ad3d 7d0a 3d3d b139 8ebc
000000a0: 9594 cdbd ec24 b63c 071e 0cbe 1d6d e93d
000000b0: e1f2 efbd f0de bb3c a741 0a3b c65d bfbd
000000c0: 5260 cdbc d5fd ef3d 3fa4 8c3c 9479 0ebe
000000d0: 476b cc3d 851c c63d cc61 6dbc 53bc fdbd
000000e0: 8c07 a3bc 2437 60bd dd3e 51bb 8b05 1d3d
000000f0: 1df7 10be 7785 b93d 53ad 8fbd c3d5 483d
00000100: 5dd9 f53d a6ac eabd 46ba 103d 9747 16be
00000110: 244d 07be b3f0 193d 6f47 473d ce8a fb3d
00000120: 1422 e73d 879e b83d b7d9 02be 2ead 14be
00000130: 2bbc 013e 4c5c bcbd aaa7 fb3c 6a74 78bd
00000140: fbb0 ad3d c89c a2bd 06f1 a83d 6dc2 d43d
00000150: 3e61 de3d 3b4f acbd eaf8 be3c c21e 65bd
00000160: a618 d53d 1828 8c3d 03e3 e3bd fc41 8e3d
00000170: 3d09 e0bc 3d36 dfbd 97c3 063e 2e16 5b3c
00000180: 7958 ccbc dc49 91bc d1ef a03d 986a 17bd
00000190: 4038 473d a954 983d f038 ddbd aa94 3a3d
000001a0: fc41 cc3d 3a5c 4cbd 7e9a 973a d955 c9bc
000001b0: 34e9 dc3d 60e2 32bd 7f4a f43d dbea cdbd
000001c0: 848d b23d 2c4c 003e f5a1 07be cf3e 25bd
000001d0: fbbc 883c bc5a 0f3d 5032 393d 38da 373d
000001e0: b796 26bc 3d5e e4bd bc30 f5bd 8ede 04be
000001f0: 2ff3 0a3e c780 2c3d 91df e2bd 8bc0 d93b
00000200: e332 f9bd 9fb3 a5bd dd20 8d3d 2f2d c83d
00000210: b808 443d b54a 52bd 7eeb 623c f3df 14bd
00000220: 8320 12be bb60 5a3d 01c2 b8bd 88b8 393d
00000230: 73f9 743d 063b 983d 7958 50bd e421 48bd
00000240: ac17 e53d 05d2 57bd bf6b aa3d
0.104428425 0.030815808 0.05129133 -0.109441414 -0.042168383 0.041401684 0.022432592 -0.10824368
0.13930589 0.1377358 -0.09101754 -0.124408096 -0.09537717 0.05587694 -0.119018205 0.051330466
0.02328621 0.122578435 -0.11864682 0.020688182 0.101992734 0.08256315 0.02934957 0.07170371
-0.05357001 -0.11600082 0.13594143 0.116906404 0.08796852 -0.017177923 -0.13311186 0.086734205
-0.09508666 -0.12276179 -0.093163736 0.06640144 0.059947696 0.08466974 0.04615258 -0.017361494
-0.100381054 0.022234403 -0.1368333 0.11397765 -0.11716247 0.022933453 0.002109626 -0.09344058
-0.025070343 0.117183365 0.017168162 -0.13913566 0.09981399 0.096734084 -0.014488649 -0.123894356
-0.01990106 -0.054740086 -0.0031928339 0.038335364 -0.14156766 0.090586595 -0.07015481 0.049031984
0.120043494 -0.11458711 0.035333894 -0.14675747 -0.1321302 0.037583064 0.04865211 0.12282334
0.11285797 0.09014612 -0.12778364 -0.14519188 0.12669437 -0.09197292 0.030719597 -0.060657896
0.08481022 -0.0794006 0.082490966 0.10388646 0.10858391 -0.084135495 0.02331205 -0.055937536
0.10405092 0.06843585 -0.111272834 0.06946179 -0.027348155 -0.10899017 0.13160549 0.013371987
-0.02494453 -0.017735414 0.07858241 -0.03696689 0.04863763 0.07438023 -0.108018756 0.045551933
0.09973523 -0.04989264 0.0011566428 -0.024577068 0.107866675 -0.04367292 0.119282715 -0.10054561
0.08718398 0.12529057 -0.13245375 -0.040343102 0.016691675 0.03499864 0.045213997 0.044885844
-0.010167769 -0.11150787 -0.11972186 -0.12975523 0.1356933 0.042115 -0.11077798 0.0066452674
-0.12167909 -0.08090901 0.06891034 0.09774243 0.047859877 -0.051340777 0.013850091 -0.036346387
-0.14270215 0.053314906 -0.09021378 0.045342 0.059808206 0.07433133 -0.050865624 -0.048860446
0.11186156 -0.052690525 0.08321332

bias f4 [3]
00000000: 5ea1 e53d 5aaf bbbd d086 633d
0.11212419 -0.09164305 0.05554849

weight f4 [3]
00000000: 369d 853f 3d02 853f 69c0 843f
1.0438602 1.0391308 1.0371219

bias f4 [3]
00000000: bccd 113c a828 ca3c b553 a93c
0.008899149 0.02467759 0.020669797

running_mean f4 [3]
00000000: b23b 963e dcfd 3a41 ce5a d440
0.2934242 11.686977 6.6360846

running_var f4 [3]
00000000: 6e92 3b43 8f9c 8c43 94f0 7f43
187.57199 281.2231 255.93976

weight f4 [4, 10800]
00000000: 5ef1 aa3b 74eb ffb7 55e2 7abb bc60 893b
00000010: 3a93 053b bc3a 263c 65a1 6e3b 56ef 033c
00000020: de23 e0bb 2f94 e43b 7af2 5d3b 0c27 173c
00000030: 27c9 8db9 0195 e63b 914b f13b 42c1 1bb9
00000040: 188b 0c3c ecca b03b 323a 063c 1ec4 ca3b
00000050: 8242 80ba 0196 103c 7b10 a73b d27a 8ebb
00000060: d6c4 cfbb a5ae f6bb 44ad 72bb 5cfb b63a
00000070: 07af 093b adca c73b ad6c eeb8 21ff 953a
00000080: 9a33 db3a f338 f13a 1111 f7bb e34c f8bb
00000090: 33fe f2bb db80 75bb 850a b3bb 5b67 263c
000000a0: 55d4 c43a 5427 70bb ca37 a23a 1c09 003c
000000b0: 5a50 133c d5c2 e13b 2254 d2bb 9304 043c
000000c0: b15b 09bc a68a dbbb f515 45bb 15db bd35
000000d0: 4af3 ba3b 41a1 f83b 51bc 9ebb 5776 48bb
000000e0: 4dc5 c53b 470a c1bb 55a9 cf3a 0c78 df3b
000000f0: 5c86 2a3c aa39 9dbb 618f c5bb b7e8 423c
00000100: e6ac 913b bc07 1139 2672 f23b 4bd1 2a3b
00000110: e925 8a3b 7228 d339 fb97 363c 94ab aa3a
00000120: 94a5 11bc 89db 863b 8fe2 893b b678 0f3c
00000130: 45ce e0b7 f41c a63b 794d 8a3b ec4d dc39
00000140: bc4e 133c 73c0 943b 34d7 243c 27b4 123c
00000150: 9b6c e8ba 4a38 a63b ae77 f63b cddb 0b3c
00000160: 170b 443b 984b 8abb 5824 1e3c ac19 b03a
00000170: 7d6f 90b8 95e4 e1bb f3ff f9bb 642a a63a
00000180: 6968 dfbb 0447 d43b d7ea bd3b 1ce0 c4bb
00000190: f583 f93a ef4a c9bb 87f0 0fbc 9fa6 2cbb
000001a0: 856e 973b ea54 9f3b 1371 883b bed6 abbb
000001b0: dccb bb3b 91ae 7c3b ac93 473b 17b1 8539
000001c0: 8fc0 ecbb 2f46 89ba 3814 e1bb d526 fd3a
000001d0: 328b edbb b01c e93a 7d75 d8bb 48bf d9ba
000001e0: d543 353b 7ac5 623b 7448 003c 2f4e d6bb
000001f0: 0bd9 29bb d13e 903a de1a 9dbb ece8 7ebb
00000200: b65c 9ebb 8199 8abb bf76 20bb d618 a5bb
00000210: 7807 b4bb 70e2 15bb 8699 dd3b 4464 5ebb
00000220: df5f 0c3c 7657 d6bb c91c bebb 495a bbbb
00000230: 63ba eb3a 87b0 d13b 37fe eebb 1e69 063c
00000240: d322 83ba 63c7 d6b9 7f7f a73b 0c93 13bc
00000250: 3698 e4bb dbfa 263c 8039 de3b c68e 6fba
00000260: ea2d 35bb 1d14 d7bb 963c b83a b4f2 a03b
00000270: 82a4 243c f20c 7eba 9a3e 0b3c 2003 07bc
00000280: d734 993b 7e78 6e3a 84de 7bbb 5592 b3bb
00000290: a1c9 ddba f66e 34bb a435 7f3b 48a7 d9b9
000002a0: 8294 1cbc 6c23 86bb 6fbf 373b 37b8 d83b
000002b0: c423 12bc 4472 b13b cfaf d1bb 4435 16bc
000002c0: a399 08bc 99e6 4cbb 1b2b 573b 641c 043c
000002d0: ce39 2e3c 3256 153c c023 213c 8c24 a73b
000002e0: 251f 1bbb 8c55 243c cc15 263c f831 0e3c
000002f0: 2fb7 05bc e635 463b 5e01 133c a376 a2bb
00000300: 713a af3a 4eeb 953b 5676 383c 1982 75ba
00000310: 82f6 ebba 16ac 213b a599 e23b 53cc 17bc
00000320: 53e1 91bb 43bd 9e3b aab3 78ba 323d eebb
00000330: e6ab 36ba 5597 043b c9fb d0bb e3d3 bbb8
00000340: f682 b9bb 68bf b93b 2f20 f63b 5120 183c
00000350: e3f2 00bc 0a7f a73b 1dda c23a aa5f f93b
00000360: bf6c bc3b f487 9e3b 7d44 fa3b 0748 0c3c
00000370: 7aa4 e8ba d75a 09bc 0e4e c8bb 0f14 e13b
00000380: 2e06 a23b 974f 013c 2036 3abb 27cf b83b
00000390: 5817 053a f15c 0a38 786b 383b 7d2e 33bc
000003a0: 39e2 b33b fce5 b33b e6c2 933b 1c02 d5bb
000003b0: d395 d139 1452 e03b 886e e93b c6c3 e7bb
000003c0: a98f 2dbb 2e69 c6bb ddb9 81bb 0d13 e9ba
000003d0: 78e5 c43b dd87 93bb 0c9f 33ba 10b3 b6bb
000003e0: 8820 a7bb fd53 c4bb a7ab 973b cbc1 283c
000003f0: 1fe6 373c c769 5f3b 88ee eebb bbcc cf3a
0.0052167615 -3.050801e-05 -0.0038281877 0.00419244 0.0020381943 0.010145839 0.0036412117 0.008052668
-0.006840213 0.0069756727 0.003386645 0.009225618 -0.00027043486 0.0070368056 0.0073637445 -0.00014853946
0.008578084 0.005395284 0.008192586 0.00618793 -0.0009785446 0.008824826 0.0050984 -0.0043481374
-0.0063406033 -0.0075281435 -0.0037029544 0.0013960409 0.0021008865 0.006097159 -0.00011368967 0.0011443832
0.0016723752 0.0018403813 -0.0075398763 -0.007577525 -0.007415557 -0.0037460837 -0.0054639005 0.010156478
0.0015016893 -0.0036644535 0.0012376246 0.007814672 0.008991325 0.006889681 -0.006418721 0.008057731
-0.008383677 -0.006699878 -0.0030072902 1.4145359e-06 0.005705272 0.0075875823 -0.0048442264 -0.0030588114
0.006035483 -0.0058911177 0.0015843312 0.0068197306 0.01040801 -0.004798134 -0.006029055 0.011896304
0.00444566 0.00013831159 0.0073988615 0.002606469 0.004215945 0.0004027519 0.011144633 0.0013021105
-0.008889575 0.004115526 0.004207916 0.008756807 -2.6798933e-05 0.0050693695 0.0042206612 0.00042019726
0.00899094 0.0045395433 0.010061074 0.0089540845 -0.0017732562 0.005072628 0.007521591 0.008536291
0.0029913837 -0.0042204373 0.00965222 0.0013435385 -6.8872214e-05 -0.006893704 -0.0076293885 0.0012677428
-0.0068178666 0.0064781923 0.0057958174 -0.006008161 0.0019036519 -0.006142966 -0.0087853735 -0.002634443
0.0046213293 0.0048624175 0.00416387 -0.005244105 0.005731089 0.0038556198 0.003045301 0.0002549968
-0.007225103 -0.0010473187 -0.0068688653 0.0019313941 -0.0072492594 0.0017785039 -0.0066058026 -0.0016612792
0.002765884 0.0034602568 0.007829774 -0.006540082 -0.0025916721 0.0011005049 -0.0047944626 -0.0038896156
-0.0048328293 -0.004229725 -0.002448484 -0.005038361 -0.0054940544 -0.0022870563 0.006762686 -0.0033934275
0.008567779 -0.006541188 -0.0058017713 -0.00571755 0.0017984625 0.0063992175 -0.0072934884 0.008203773
-0.0010004885 -0.00040965815 0.0051116343 -0.009007227 -0.006976153 0.010191645 0.006781757 -0.00091384014
-0.0027645775 -0.006563677 0.0014056142 0.004911745 0.010048987 -0.000969126 0.008498812 -0.008240491
0.0046754885 0.0009096934 -0.003843219 -0.0054800906 -0.0016921052 -0.0027531958 0.0038941884 -0.000415141
-0.009556891 -0.004093578 0.0028037687 0.006613757 -0.00891966 0.005415233 -0.006399132 -0.009167973
-0.008337411 -0.0031265377 0.003283209 0.0080634095 0.010633899 0.009114789 0.009835184 0.0051007923
-0.0023669687 0.010030162 0.010137033 0.008678906 -0.00816135 0.0030244528 0.008972494 -0.0049579903
0.0013368857 0.0045751696 0.011258682 -0.00093653944 -0.0018002542 0.0024669222 0.0069152885 -0.009265023
-0.0044519096 0.004844339 -0.0009487221 -0.0072704786 -0.0006968364 0.0020231802 -0.0063776714 -8.956322e-05
-0.0056613637 0.0056685694 0.007511161 0.009285049 -0.007870409 0.00511158 0.0014866028 0.007610281
0.005750268 0.004837984 0.007637559 0.0085620945 -0.0017749213 -0.008383474 -0.0061128205 0.0068688462
0.0049445843 0.007892511 -0.0028413609 0.005639929 0.0005077026 3.2988322e-05 0.0028140228 -0.010936377
0.0054896143 0.0054900628 0.0045093177 -0.0065004956 0.00039975214 0.006845722 0.007123772 -0.0070728986
-0.0026483333 -0.006055019 -0.003958924 -0.0017782167 0.0060088 -0.00450228 -0.0006852008 -0.005575545
-0.0051003136 -0.0059914575 0.004628617 0.01030011 0.011224299 0.0034090148 -0.0072916187 0.0015853861

bias f4 [4]
00000000: 0703 47bb 59dc c73a bdd1 54bb 18b0 b53a
-0.0030366795 0.0015248164 -0.0032473647 0.0013861684
